{"format": "graph-model", "generatedBy": "2.14.0", "convertedBy": "TensorFlow.js Converter v4.13.0", "signature": {"inputs": {"x": {"name": "x:0", "dtype": "DT_UINT8", "tensorShape": {"dim": [{"size": "-1"}, {"size": "28"}, {"size": "28"}, {"size": "1"}]}}}, "outputs": {"output_0": {"name": "Identity:0", "dtype": "DT_INT64", "tensorShape": {"dim": [{"size": "-1"}]}}}}, "modelTopology": {"node": [{"name": "StatefulPartitionedCall/ArgMax/dimension", "op": "Const", "attr": {"value": {"tensor": {"dtype": "DT_INT32", "tensorShape": {}}}, "dtype": {"type": "DT_INT32"}}}, {"name": "x", "op": "Placeholder", "attr": {"dtype": {"type": "DT_UINT8"}, "shape": {"shape": {"dim": [{"size": "-1"}, {"size": "28"}, {"size": "28"}, {"size": "1"}]}}}}, {"name": "StatefulPartitionedCall/truediv/Cast", "op": "Cast", "input": ["x"], "attr": {"DstT": {"type": "DT_FLOAT"}, "SrcT": {"type": "DT_UINT8"}, "Truncate": {"b": false}}}, {"name": "StatefulPartitionedCall/StatefulPartitionedCall/dropout/GreaterEqual/y", "op": "Const", "input": ["^StatefulPartitionedCall/truediv/Cast"], "attr": {"value": {"tensor": {"dtype": "DT_FLOAT", "tensorShape": {}}}, "dtype": {"type": "DT_FLOAT"}}}, {"name": "StatefulPartitionedCall/StatefulPartitionedCall/Conv2D/ArithmeticOptimizer/FoldMultiplyIntoConv_scaled_StatefulPartitionedCall/StatefulPartitionedCall/Conv2D_ReadVariableOp", "op": "Const", "input": ["^StatefulPartitionedCall/truediv/Cast"], "attr": {"value": {"tensor": {"dtype": "DT_FLOAT", "tensorShape": {"dim": [{"size": "3"}, {"size": "3"}, {"size": "1"}, {"size": "32"}]}}}, "dtype": {"type": "DT_FLOAT"}}}, {"name": "StatefulPartitionedCall/StatefulPartitionedCall/BiasAdd/ReadVariableOp", "op": "Const", "input": ["^StatefulPartitionedCall/truediv/Cast"], "attr": {"dtype": {"type": "DT_FLOAT"}, "value": {"tensor": {"dtype": "DT_FLOAT", "tensorShape": {"dim": [{"size": "32"}]}}}}}, {"name": "StatefulPartitionedCall/StatefulPartitionedCall/Conv2D_1/ReadVariableOp", "op": "Const", "input": ["^StatefulPartitionedCall/truediv/Cast"], "attr": {"dtype": {"type": "DT_FLOAT"}, "value": {"tensor": {"dtype": "DT_FLOAT", "tensorShape": {"dim": [{"size": "3"}, {"size": "3"}, {"size": "32"}, {"size": "64"}]}}}}}, {"name": "StatefulPartitionedCall/StatefulPartitionedCall/MatMul_1/ReadVariableOp", "op": "Const", "input": ["^StatefulPartitionedCall/truediv/Cast"], "attr": {"value": {"tensor": {"dtype": "DT_FLOAT", "tensorShape": {"dim": [{"size": "64"}, {"size": "10"}]}}}, "dtype": {"type": "DT_FLOAT"}}}, {"name": "StatefulPartitionedCall/StatefulPartitionedCall/BiasAdd_1/ReadVariableOp", "op": "Const", "input": ["^StatefulPartitionedCall/truediv/Cast"], "attr": {"value": {"tensor": {"dtype": "DT_FLOAT", "tensorShape": {"dim": [{"size": "64"}]}}}, "dtype": {"type": "DT_FLOAT"}}}, {"name": "StatefulPartitionedCall/StatefulPartitionedCall/Conv2D_2/ReadVariableOp", "op": "Const", "input": ["^StatefulPartitionedCall/truediv/Cast"], "attr": {"value": {"tensor": {"dtype": "DT_FLOAT", "tensorShape": {"dim": [{"size": "3"}, {"size": "3"}, {"size": "64"}, {"size": "128"}]}}}, "dtype": {"type": "DT_FLOAT"}}}, {"name": "StatefulPartitionedCall/StatefulPartitionedCall/Add_1/ReadVariableOp", "op": "Const", "input": ["^StatefulPartitionedCall/truediv/Cast"], "attr": {"dtype": {"type": "DT_FLOAT"}, "value": {"tensor": {"dtype": "DT_FLOAT", "tensorShape": {"dim": [{"size": "10"}]}}}}}, {"name": "StatefulPartitionedCall/StatefulPartitionedCall/BiasAdd_2/ReadVariableOp", "op": "Const", "input": ["^StatefulPartitionedCall/truediv/Cast"], "attr": {"value": {"tensor": {"dtype": "DT_FLOAT", "tensorShape": {"dim": [{"size": "128"}]}}}, "dtype": {"type": "DT_FLOAT"}}}, {"name": "StatefulPartitionedCall/StatefulPartitionedCall/Reshape/shape", "op": "Const", "input": ["^StatefulPartitionedCall/truediv/Cast"], "attr": {"value": {"tensor": {"dtype": "DT_INT32", "tensorShape": {"dim": [{"size": "2"}]}}}, "dtype": {"type": "DT_INT32"}}}, {"name": "StatefulPartitionedCall/StatefulPartitionedCall/dropout/Const", "op": "Const", "input": ["^StatefulPartitionedCall/truediv/Cast"], "attr": {"value": {"tensor": {"dtype": "DT_FLOAT", "tensorShape": {}}}, "dtype": {"type": "DT_FLOAT"}}}, {"name": "StatefulPartitionedCall/StatefulPartitionedCall/dropout/Const_1", "op": "Const", "input": ["^StatefulPartitionedCall/truediv/Cast"], "attr": {"value": {"tensor": {"dtype": "DT_FLOAT", "tensorShape": {}}}, "dtype": {"type": "DT_FLOAT"}}}, {"name": "StatefulPartitionedCall/StatefulPartitionedCall/MatMul/ReadVariableOp", "op": "Const", "input": ["^StatefulPartitionedCall/truediv/Cast"], "attr": {"value": {"tensor": {"dtype": "DT_FLOAT", "tensorShape": {"dim": [{"size": "1152"}, {"size": "64"}]}}}, "dtype": {"type": "DT_FLOAT"}}}, {"name": "StatefulPartitionedCall/StatefulPartitionedCall/Add/ReadVariableOp", "op": "Const", "input": ["^StatefulPartitionedCall/truediv/Cast"], "attr": {"dtype": {"type": "DT_FLOAT"}, "value": {"tensor": {"dtype": "DT_FLOAT", "tensorShape": {"dim": [{"size": "64"}]}}}}}, {"name": "StatefulPartitionedCall/StatefulPartitionedCall/Relu", "op": "_FusedConv2D", "input": ["StatefulPartitionedCall/truediv/Cast", "StatefulPartitionedCall/StatefulPartitionedCall/Conv2D/ArithmeticOptimizer/FoldMultiplyIntoConv_scaled_StatefulPartitionedCall/StatefulPartitionedCall/Conv2D_ReadVariableOp", "StatefulPartitionedCall/StatefulPartitionedCall/BiasAdd/ReadVariableOp"], "device": "/device:CPU:0", "attr": {"leakyrelu_alpha": {"f": 0.2}, "T": {"type": "DT_FLOAT"}, "padding": {"s": "VkFMSUQ="}, "num_args": {"i": "1"}, "dilations": {"list": {"i": ["1", "1", "1", "1"]}}, "filter_format": {"s": "SFdJTw=="}, "strides": {"list": {"i": ["1", "1", "1", "1"]}}, "fused_ops": {"list": {"s": ["Qmlhc0FkZA==", "UmVsdQ=="]}}, "num_host_args": {"i": "0"}, "epsilon": {"f": 0.0}, "TArgs": {"list": {"type": ["DT_FLOAT"]}}, "explicit_paddings": {"list": {}}, "use_cudnn_on_gpu": {"b": true}, "data_format": {"s": "TkhXQw=="}}}, {"name": "StatefulPartitionedCall/StatefulPartitionedCall/MaxPool2d", "op": "MaxPool", "input": ["StatefulPartitionedCall/StatefulPartitionedCall/Relu"], "attr": {"data_format": {"s": "TkhXQw=="}, "explicit_paddings": {"list": {}}, "padding": {"s": "VkFMSUQ="}, "T": {"type": "DT_FLOAT"}, "ksize": {"list": {"i": ["1", "2", "2", "1"]}}, "strides": {"list": {"i": ["1", "2", "2", "1"]}}}}, {"name": "StatefulPartitionedCall/StatefulPartitionedCall/Relu_1", "op": "_FusedConv2D", "input": ["StatefulPartitionedCall/StatefulPartitionedCall/MaxPool2d", "StatefulPartitionedCall/StatefulPartitionedCall/Conv2D_1/ReadVariableOp", "StatefulPartitionedCall/StatefulPartitionedCall/BiasAdd_1/ReadVariableOp"], "device": "/device:CPU:0", "attr": {"num_args": {"i": "1"}, "dilations": {"list": {"i": ["1", "1", "1", "1"]}}, "T": {"type": "DT_FLOAT"}, "padding": {"s": "VkFMSUQ="}, "num_host_args": {"i": "0"}, "fused_ops": {"list": {"s": ["Qmlhc0FkZA==", "UmVsdQ=="]}}, "strides": {"list": {"i": ["1", "1", "1", "1"]}}, "TArgs": {"list": {"type": ["DT_FLOAT"]}}, "data_format": {"s": "TkhXQw=="}, "filter_format": {"s": "SFdJTw=="}, "epsilon": {"f": 0.0}, "use_cudnn_on_gpu": {"b": true}, "leakyrelu_alpha": {"f": 0.2}, "explicit_paddings": {"list": {}}}}, {"name": "StatefulPartitionedCall/StatefulPartitionedCall/MaxPool2d_1", "op": "MaxPool", "input": ["StatefulPartitionedCall/StatefulPartitionedCall/Relu_1"], "attr": {"explicit_paddings": {"list": {}}, "strides": {"list": {"i": ["1", "2", "2", "1"]}}, "ksize": {"list": {"i": ["1", "2", "2", "1"]}}, "padding": {"s": "VkFMSUQ="}, "data_format": {"s": "TkhXQw=="}, "T": {"type": "DT_FLOAT"}}}, {"name": "StatefulPartitionedCall/StatefulPartitionedCall/Relu_2", "op": "_FusedConv2D", "input": ["StatefulPartitionedCall/StatefulPartitionedCall/MaxPool2d_1", "StatefulPartitionedCall/StatefulPartitionedCall/Conv2D_2/ReadVariableOp", "StatefulPartitionedCall/StatefulPartitionedCall/BiasAdd_2/ReadVariableOp"], "device": "/device:CPU:0", "attr": {"strides": {"list": {"i": ["1", "1", "1", "1"]}}, "leakyrelu_alpha": {"f": 0.2}, "num_host_args": {"i": "0"}, "data_format": {"s": "TkhXQw=="}, "fused_ops": {"list": {"s": ["Qmlhc0FkZA==", "UmVsdQ=="]}}, "TArgs": {"list": {"type": ["DT_FLOAT"]}}, "padding": {"s": "VkFMSUQ="}, "dilations": {"list": {"i": ["1", "1", "1", "1"]}}, "explicit_paddings": {"list": {}}, "num_args": {"i": "1"}, "use_cudnn_on_gpu": {"b": true}, "filter_format": {"s": "SFdJTw=="}, "epsilon": {"f": 0.0}, "T": {"type": "DT_FLOAT"}}}, {"name": "StatefulPartitionedCall/StatefulPartitionedCall/Reshape", "op": "Reshape", "input": ["StatefulPartitionedCall/StatefulPartitionedCall/Relu_2", "StatefulPartitionedCall/StatefulPartitionedCall/Reshape/shape"], "attr": {"Tshape": {"type": "DT_INT32"}, "T": {"type": "DT_FLOAT"}}}, {"name": "StatefulPartitionedCall/StatefulPartitionedCall/dropout/Shape", "op": "Shape", "input": ["StatefulPartitionedCall/StatefulPartitionedCall/Reshape"], "attr": {"out_type": {"type": "DT_INT32"}, "T": {"type": "DT_FLOAT"}}, "experimentalType": {"typeId": "TFT_PRODUCT", "args": [{"typeId": "TFT_SHAPE_TENSOR", "args": [{"typeId": "TFT_INT32"}]}]}}, {"name": "StatefulPartitionedCall/StatefulPartitionedCall/dropout/Mul", "op": "Mul", "input": ["StatefulPartitionedCall/StatefulPartitionedCall/Reshape", "StatefulPartitionedCall/StatefulPartitionedCall/dropout/Const"], "attr": {"T": {"type": "DT_FLOAT"}}}, {"name": "StatefulPartitionedCall/StatefulPartitionedCall/dropout/random_uniform/RandomUniform", "op": "RandomUniform", "input": ["StatefulPartitionedCall/StatefulPartitionedCall/dropout/Shape"], "attr": {"seed2": {"i": "0"}, "dtype": {"type": "DT_FLOAT"}, "T": {"type": "DT_INT32"}, "seed": {"i": "22"}}}, {"name": "StatefulPartitionedCall/StatefulPartitionedCall/dropout/GreaterEqual", "op": "GreaterEqual", "input": ["StatefulPartitionedCall/StatefulPartitionedCall/dropout/random_uniform/RandomUniform", "StatefulPartitionedCall/StatefulPartitionedCall/dropout/GreaterEqual/y"], "attr": {"T": {"type": "DT_FLOAT"}}}, {"name": "StatefulPartitionedCall/StatefulPartitionedCall/dropout/SelectV2", "op": "SelectV2", "input": ["StatefulPartitionedCall/StatefulPartitionedCall/dropout/GreaterEqual", "StatefulPartitionedCall/StatefulPartitionedCall/dropout/Mul", "StatefulPartitionedCall/StatefulPartitionedCall/dropout/Const_1"], "attr": {"T": {"type": "DT_FLOAT"}}}, {"name": "StatefulPartitionedCall/StatefulPartitionedCall/Relu_3", "op": "_FusedMatMul", "input": ["StatefulPartitionedCall/StatefulPartitionedCall/dropout/SelectV2", "StatefulPartitionedCall/StatefulPartitionedCall/MatMul/ReadVariableOp", "StatefulPartitionedCall/StatefulPartitionedCall/Add/ReadVariableOp"], "device": "/device:CPU:0", "attr": {"transpose_a": {"b": false}, "num_args": {"i": "1"}, "leakyrelu_alpha": {"f": 0.2}, "T": {"type": "DT_FLOAT"}, "epsilon": {"f": 0.0}, "fused_ops": {"list": {"s": ["Qmlhc0FkZA==", "UmVsdQ=="]}}, "transpose_b": {"b": false}}}, {"name": "StatefulPartitionedCall/StatefulPartitionedCall/Add_1", "op": "_FusedMatMul", "input": ["StatefulPartitionedCall/StatefulPartitionedCall/Relu_3", "StatefulPartitionedCall/StatefulPartitionedCall/MatMul_1/ReadVariableOp", "StatefulPartitionedCall/StatefulPartitionedCall/Add_1/ReadVariableOp"], "device": "/device:CPU:0", "attr": {"leakyrelu_alpha": {"f": 0.2}, "T": {"type": "DT_FLOAT"}, "transpose_a": {"b": false}, "epsilon": {"f": 0.0}, "transpose_b": {"b": false}, "num_args": {"i": "1"}, "fused_ops": {"list": {"s": ["Qmlhc0FkZA=="]}}}}, {"name": "StatefulPartitionedCall/Softmax", "op": "Softmax", "input": ["StatefulPartitionedCall/StatefulPartitionedCall/Add_1"], "attr": {"T": {"type": "DT_FLOAT"}}}, {"name": "StatefulPartitionedCall/ArgMax", "op": "ArgMax", "input": ["StatefulPartitionedCall/Softmax", "StatefulPartitionedCall/ArgMax/dimension"], "attr": {"output_type": {"type": "DT_INT64"}, "Tidx": {"type": "DT_INT32"}, "T": {"type": "DT_FLOAT"}}}, {"name": "Identity", "op": "Identity", "input": ["StatefulPartitionedCall/ArgMax"], "attr": {"T": {"type": "DT_INT64"}}}], "library": {}, "versions": {"producer": 1645}}, "weightsManifest": [{"paths": ["group1-shard1of1.bin"], "weights": [{"name": "StatefulPartitionedCall/ArgMax/dimension", "shape": [], "dtype": "int32"}, {"name": "StatefulPartitionedCall/StatefulPartitionedCall/dropout/GreaterEqual/y", "shape": [], "dtype": "float32"}, {"name": "StatefulPartitionedCall/StatefulPartitionedCall/Conv2D/ArithmeticOptimizer/FoldMultiplyIntoConv_scaled_StatefulPartitionedCall/StatefulPartitionedCall/Conv2D_ReadVariableOp", "shape": [3, 3, 1, 32], "dtype": "float32"}, {"name": "StatefulPartitionedCall/StatefulPartitionedCall/BiasAdd/ReadVariableOp", "shape": [32], "dtype": "float32"}, {"name": "StatefulPartitionedCall/StatefulPartitionedCall/Conv2D_1/ReadVariableOp", "shape": [3, 3, 32, 64], "dtype": "float32"}, {"name": "StatefulPartitionedCall/StatefulPartitionedCall/MatMul_1/ReadVariableOp", "shape": [64, 10], "dtype": "float32"}, {"name": "StatefulPartitionedCall/StatefulPartitionedCall/BiasAdd_1/ReadVariableOp", "shape": [64], "dtype": "float32"}, {"name": "StatefulPartitionedCall/StatefulPartitionedCall/Conv2D_2/ReadVariableOp", "shape": [3, 3, 64, 128], "dtype": "float32"}, {"name": "StatefulPartitionedCall/StatefulPartitionedCall/Add_1/ReadVariableOp", "shape": [10], "dtype": "float32"}, {"name": "StatefulPartitionedCall/StatefulPartitionedCall/BiasAdd_2/ReadVariableOp", "shape": [128], "dtype": "float32"}, {"name": "StatefulPartitionedCall/StatefulPartitionedCall/Reshape/shape", "shape": [2], "dtype": "int32"}, {"name": "StatefulPartitionedCall/StatefulPartitionedCall/dropout/Const", "shape": [], "dtype": "float32"}, {"name": "StatefulPartitionedCall/StatefulPartitionedCall/dropout/Const_1", "shape": [], "dtype": "float32"}, {"name": "StatefulPartitionedCall/StatefulPartitionedCall/MatMul/ReadVariableOp", "shape": [1152, 64], "dtype": "float32"}, {"name": "StatefulPartitionedCall/StatefulPartitionedCall/Add/ReadVariableOp", "shape": [64], "dtype": "float32"}]}]}